data.pth (torch, 19498 bytes, 6 tensors)

l1.weight f4 [8, 280]
0.27508733 1.2712197 0.82345515 -1.0860165 -0.38249922 -0.36699197 0.011606843 -0.72554237
-0.8277883 -0.98267925 1.2163377 0.52381414 0.25585836 -0.043780286 0.72365236 -0.14619462
0.4561979 -0.34015912 1.2906641 0.05165049 0.88970584 -0.038337886 -0.30925 0.37583792
1.3013136 -1.4446048 -0.27413163 -0.5147302 -0.32704735 -1.2812145 -0.5366083 -0.50451076
0.90494716 -1.1907994 -0.9135439 -0.46501198 0.65043014 -0.22650951 1.025648 -0.82332176
1.146733 1.319089 -0.9338683 -0.784549 -0.24882872 -0.54019225 -1.5316519 -1.1471356
1.6378754 -0.50895965 1.508518 -0.54924315 1.5968548 0.5855936 -0.50323987 -0.5311565
0.20085755 0.2654342 0.665579 -1.7510716 -1.3057629 0.1435297 -0.0715264 0.23900668
0.6958813 0.10710809 -0.98778105 0.7382282 -0.78604645 -0.9052138 -0.30251893 1.6889822
1.4694171 1.242945 -1.1910495 -1.4971222 1.2611203 -0.62421983 -1.2117635 0.94503844
-0.24600543 0.98380697 -0.41270784 1.2344009 0.081933804 1.3815796 0.6775208 0.9483605
0.23475724 0.93866557 1.3737276 0.8698447 0.48879296 1.2975961 0.5325886 -0.82953584
2.1089263 -0.97991467 0.37583306 -0.14525406 -0.59093446 0.64153713 0.005877935 0.5850932
0.95953417 1.1273844 1.4846501 -0.54998356 1.1424003 0.86469126 1.146181 1.142427
-0.10704393 1.1444981 0.09014657 1.1504698 1.1873475 -0.14305031 0.7120085 0.75149584
-0.104955815 1.6337793 0.70649564 -0.5464597 0.56048554 0.9302524 -1.2508945 -0.29625952
0.09148053 0.95093614 -0.7778078 0.89024585 1.1520741 0.16819055 -0.36606333 0.043686744
-0.03080133 -0.40315524 -0.09131189 1.2891208 1.803756 -0.8506953 -0.5398472 0.9474573
1.1334053 -0.19933581 -0.29287753 0.23845214 -0.23940678 0.23448166 -0.25050247 1.2991112
-1.5780032 1.1293883 1.7233162 -0.14206018 0.2005329 1.464987 -2.3166637 0.17406759
-0.30644235 0.99635804 1.5529134 0.87224865 1.3001832 -0.36813357 0.5508271 0.79203284
0.019856574 0.6678077 0.4465832 0.925885 1.1430645 0.2676832 1.5107684 -0.7721633
-0.49765563 0.5069814 -0.6044907 -1.0374262 0.021263923 0.24284479 0.45620596 0.9570339
0.23433003 -0.5977001 0.50219876 -1.2217983 -0.19980808 0.45677164 0.026458398 -0.22513813
0.25468275 1.296597 0.13303025 0.8907445 -0.52305204 0.1637281 1.1384189 1.7061274
0.6991759 0.96994 -0.9578652 1.4018435 -0.07550808 1.1595753 1.0360535 -0.7050575
-0.5040881 -0.35232967 -0.071474165 1.0270529 0.18855883 0.3560616 -0.5395276 0.20551807
-0.6460152 -1.0073538 0.19663066 -0.20209584 -0.9151809 -1.036154 -1.2360332 -1.8208944
-1.2521528 0.86283416 -0.5152981 0.9356782 0.15796897 -0.30946508 0.66221744 -0.37811306
-1.4051076 -0.29257706 -0.83549553 -0.29715002 -0.42101318 0.08505121 -0.40180826 0.04034518
0.8365009 0.9347489 0.87756795 0.37818056 0.008326816 0.027314987 0.98586476 -1.1850471
0.3529981 -0.40141782 0.22333942 -0.6630154 0.4077656 1.5748043 0.8026536 -0.904601
00000000: 3fd8 8c3e 54b7 a23f f5cd 523f 9702 8bbf
00000010: f0d6 c3be 5fe6 bbbe a12a 3e3c 25bd 39bf
00000020: efe9 53bf de90 7bbf f4b0 9b3f af18 063f
00000030: deff 823e f552 33bd 4841 393f 0bb4 15be
00000040: c592 e93e 5629 aebe 7b34 a53f 778f 533d
00000050: c3c3 633f 3008 1dbd 0456 9ebe d46d c03e
00000060: 7291 a63f cfe8 b8bf fb5a 8cbe 5cc5 03bf
00000070: c072 a7be d6fe a3bf 295f 09bf 9e27 01bf
00000080: 9eaa 673f 1d6c 98bf 03de 69bf 0d16 eebe
00000090: 9782 263f 1cf2 67be 6f48 833f 37c5 52bf
000000a0: 26c8 923f e9d7 a83f fe11 6fbf 34d8 48bf
000000b0: f5cc 7ebe 0a4a 0abf 2b0d c4bf 57d5 92bf
000000c0: e7a5 d13f 2e4b 02bf 1e17 c13f 339b 0cbf
000000d0: bd65 cc3f 76e9 153f 54d4 00bf dff9 07bf
000000e0: 9aad 4d3e fee6 873e 6363 2a3f 1d23 e0bf
000000f0: 3d23 a7bf 73f9 123e 6f7c 92bd 2bbe 743e
00000100: 4725 323f 7c5b db3d 38df 7cbf 86fc 3c3f
00000110: 573a 49bf 17bc 67bf c3e3 9abe 9230 d83f
00000120: dc15 bc3f d218 9f3f 4f74 98bf b3a1 bfbf
00000130: 646c a13f dfcc 1fbf 111b 9bbf 0aee 713f
00000140: d9e8 7bbe c6da 7b3f 714e d3be d900 9e3f
00000150: e9cc a73d 9ad7 b03f 0172 2d3f c1c7 723f
00000160: 3464 703e 634c 703f 4ed6 af3f 24ae 5e3f
00000170: 1243 fa3e a117 a63f ba57 083f 765c 54bf
00000180: a6f8 0640 b0db 7abf 316d c03e 7bbd 14be
00000190: 7b47 17bf c73b 243f b19b c03b abc8 153f
000001a0: 08a4 753f 224e 903f 0409 be3f b9cb 0cbf
000001b0: 2c3a 923f 685c 5d3f 0fb6 923f 0c3b 923f
000001c0: d939 dbbd ea7e 923f c49e b83d 9842 933f
000001d0: 01fb 973f c87b 12be 3046 363f 0862 403f
000001e0: 13f3 d6bd ae1f d13f e6dc 343f c8e4 0bbf
000001f0: fb7b 0f3f 0525 6e3f 501d a0bf 54af 97be
00000200: 255a bb3d 8d70 733f 691e 47bf 27e7 633f
00000210: 2a77 933f 253a 2c3e a76c bbbe dff0 323d
00000220: 1253 fcbc 5d6a cebe ba01 bbbd e901 a53f
00000230: 7ae1 e63f 2bc7 59bf 6d33 0abf 908c 723f
00000240: 6d13 913f b01e 4cbe 0bf4 95be cc2c 743e
00000250: 0d27 75be f61b 703e dc41 80be 4749 a63f
00000260: 02fc c9bf cc8f 903f a095 dc3f 3978 11be
00000270: 7f58 4d3e b284 bb3f 3844 14c0 c63e 323e
00000280: 03e6 9cbe 5211 7f3f dec5 c63f b04b 5f3f
00000290: 676c a63f 017c bcbe 0103 0d3f aac2 4a3f
000002a0: 41aa a23c 72f5 2a3f 8ea6 e43e cd06 6d3f
000002b0: f04f 923f c60d 893e dc60 c13f 7eac 45bf
000002c0: b8cc febe 88c9 013f e7bf 1abf 62ca 84bf
000002d0: ae31 ae3c 4eac 783e d493 e93e 2c00 753f
000002e0: 36f4 6f3e e002 19bf 1990 003f e363 9cbf
000002f0: 7d9a 4cbe f9dd e93e 48bf d83c 9c8a 66be
00000300: c765 823e e4f6 a53f 1539 083e d507 643f
00000310: bde6 05bf 57a8 273e b6b7 913f 6262 da3f
00000320: 31fd 323f fd4d 783f a736 75bf 9c6f b33f
00000330: fba3 9abd f76c 943f 679d 843f a67e 34bf
00000340: eb0b 01bf 8e64 b4be 0c61 92bd 7876 833f
00000350: 9115 413e b54d b63e 7b1e 0abf 5473 523e
00000360: 4161 25bf f8f0 80bf 8c59 493e 36f2 4ebe
00000370: 4c49 6abf b2a0 84bf 5636 9ebf 1113 e9bf
00000380: 8b46 a0bf b3e2 5c3f 94ea 03bf 9b88 6f3f
00000390: 9ec2 213e 3572 9ebe 1587 293f 0998 c1be
000003a0: 91da b3bf a9cc 95be 09e3 55bf 0c24 98be
000003b0: 0a8f d7be 542f ae3d d0b9 cdbe fd40 253d
000003c0: ec24 563f b44b 6f3f 4ba8 603f e2a0 c13e
000003d0: 336d 083c aec3 df3c a261 7c3f a0af 97bf
000003e0: 2bbc b43e a386 cdbe 17b3 643e 61bb 29bf
000003f0: a7c6 d03e 3093 c93f b57a 4d3f ee93 67bf

l1.bias f4 [8]
1.2057565 0.3418448 0.78439593 0.49435145 0.5821253 1.8534951 0.8278293 0.5374323
00000000: 3b56 9a3f 4806 af3e 2cce 483f a21b fd3e
00000010: 2a06 153f 543f ed3f 9fec 533f 2a95 093f

l2.weight f4 [8, 8]
3.0364401 0.9417626 0.4674818 1.4910884 -0.5708061 1.7105908 -0.008873078 -2.0494025
-1.3179747 -0.73793143 -0.22247915 -0.85920304 3.401063 0.8188575 1.7999892 -0.9734135
-0.4039448 -0.9859805 -0.8313604 0.9453168 -0.38610706 2.3668582 -0.32047206 2.3438745
1.9417017 -0.60147154 -1.6295197 -1.5760993 -0.036500286 0.6034397 2.4993458 0.2743541
-0.5847033 -1.1867174 2.9541535 -1.1967511 -0.5063961 2.4206374 0.290412 0.959261
1.0725187 0.44434753 2.554477 -1.0014324 -0.31322002 -0.3605827 1.7111574 1.380812
0.51214683 1.970979 0.492037 1.6404743 2.7195842 -0.55743796 -0.06668921 1.23084
-1.3897356 3.9005816 -1.2151146 3.4058506 -0.3311494 0.8475517 2.2550523 3.5517557
00000000: 0955 4240 5b17 713f c659 ef3e fcdb be3f
00000010: 5920 12bf a4f4 da3f 6360 11bc 6929 03c0
00000020: 65b3 a8bf 13e9 3cbf 93d1 63be bbf4 5bbf
00000030: 04ab 5940 a5a0 513f 0c66 e63f a131 79bf
00000040: dad1 cebe 3869 7cbf 09d4 54bf 4800 723f
00000050: d3af c5be 9b7a 1740 ea14 a4be 0a02 1640
00000060: ae89 f83f 0afa 19bf 1a94 d0bf 9fbd c9bf
00000070: 5381 15bd 067b 1a3f 48f5 1f40 2478 8c3e
00000080: 1eaf 15bf 5be6 97bf da10 3d40 242f 99bf
00000090: 2da3 01bf b9eb 1a40 e2b0 943e 2192 753f
000000a0: 4b48 893f 8581 e33e 8d7c 2340 f02e 80bf
000000b0: 605e a0be 4c9e b8be 3507 db3f 73be b03f
000000c0: 0e1c 033f 0a49 fc3f 46ec fb3e 10fb d13f
000000d0: ab0d 2e40 41b4 0ebf 5a94 88bd 2a8c 9d3f
000000e0: dbe2 b1bf 21a3 7940 e088 9bbf 75f9 5940
000000f0: 6a8c a9be 26f9 583f c752 1040 f74f 6340

l2.bias f4 [8]
1.2584966 1.1835506 1.3950895 0.6797436 0.8176738 0.016119916 0.17445698 -1.11124
00000000: 6b16 a13f 967e 973f 4b92 b23f ad03 2e3f
00000010: 1253 513f ea0d 843c daa4 323e 1d3d 8ebf

l3.weight f4 [80, 8]
-0.9442651 0.80024207 0.06364371 0.44151872 -0.97189885 -2.5146132 -0.3750476 -0.14959693
-0.32468542 -0.8882724 -0.4313432 -1.295099 -0.7520209 -0.08523286 0.14264902 -0.47684854
-1.0527934 0.2667205 -2.8962488 0.7349695 -3.2204895 -0.25564146 -0.5093568 0.01994472
-1.36966 0.23631264 -0.7173174 -0.39063516 -0.6874216 -0.53533685 -0.07094233 -0.3462204
0.6155052 -0.14841354 0.08211633 -0.29009563 0.6518422 -0.10853892 -1.9966093 -4.5218883
-1.9610574 0.29127973 0.5749847 -1.9233304 -0.048435062 -4.3552575 -0.022031214 0.05862779
-0.45600152 1.4113365 0.094607644 -0.24052171 0.28501245 -4.0850058 -0.3999734 -1.5838944
-0.009518799 1.4733226 -0.2878271 1.2070858 -0.7798499 -1.4267902 -1.1560566 -3.0028963
-1.2753885 0.060915656 -0.41182107 0.6585913 -0.50647885 -0.3481124 -0.7949699 -0.5555835
-1.1804553 0.35320714 -0.38951033 0.193395 0.5040723 0.04941608 -2.6134174 -0.92586
-0.74038327 0.53035074 -0.7837379 -0.35452232 -4.4528894 -0.43586534 0.21597953 -0.3394808
-0.96879286 -0.6873143 -0.2072757 -1.3202815 -3.0140862 -1.1351315 -0.28462362 0.54363364
-1.2545716 -1.4224261 -0.3273261 -3.9275856 -0.3790904 -0.5325134 0.3554746 -0.025616655
-1.5046084 -0.1569945 -1.0601383 -2.7928398 0.07284935 0.22118992 -0.2700541 -0.29872987
-0.01883466 -2.3809574 0.4839331 -3.1967947 0.37497222 -0.10027032 -0.64953446 -0.9520726
-2.5696986 -0.17776716 0.14977883 -1.9223833 -0.39412048 -0.44047245 -0.099174775 -0.310423
-1.3074191 -1.2307678 -1.3759352 -0.024548259 -3.6299284 -0.20378949 0.39492056 -0.026177472
-2.7692041 0.5293233 -2.907863 -1.0081627 0.16340649 0.23321177 0.1896456 -1.1696358
-0.67240006 -0.8355392 -2.9215183 -0.48813984 -1.4735097 0.009017201 0.15962896 -0.09214781
-3.1910567 -2.2157302 0.1519517 -1.942585 -1.9388554 -1.6050792 0.38383833 0.45767587
-0.9588087 -3.2979808 -0.124847196 -0.29475853 -3.0133405 0.0048907734 -0.12661384 0.09992745
-0.3696591 -3.2082703 -0.6887599 -0.8489794 0.4645873 0.40602204 -0.1976859 -1.3505527
-1.0116851 -1.6576695 -1.4822398 -2.7326097 -0.9220994 -2.2444665 0.80089533 0.41520855
-2.5784237 0.28151813 -3.1910071 0.018316187 -1.3266422 0.15818974 -0.07994687 -0.24839418
-0.12201899 -1.2423615 -2.3299232 -3.2469466 0.062663525 0.28916433 -0.33447522 -0.2199883
-2.0208652 -0.41715506 -2.5266604 -2.0371659 -0.54394704 0.49560297 0.23744683 -0.3788685
-2.9590113 -0.015080976 0.31058696 -2.2119827 -1.8794363 -0.8859272 0.081030615 0.06463325
-0.46389705 -2.5387087 -0.58104867 -2.699025 0.09320723 -0.028863413 -0.29006803 -0.20299105
-0.45613134 0.17122677 -0.010320572 -2.9672909 -1.585025 -1.0964271 0.19554472 -0.26269433
-0.21268015 -0.6630115 0.37576258 -3.2164874 -1.6013519 -3.8954163 0.21446745 0.100863315
-1.8727484 0.070638046 0.32108086 -1.8554736 -2.94988 -3.5679228 0.4833041 0.1676665
-1.7890773 -0.110825606 -1.5087693 -1.9253964 -2.0189497 -0.22419089 0.3015369 0.03875022
00000000: 5cbb 71bf aadc 4c3f a257 823d be0e e23e
00000010: 5dce 78bf 6cef 20c0 3d06 c0be f02f 19be
00000020: 2b3d a6be d265 63bf 04d9 dcbe cec5 a5bf
00000030: 7184 40bf 918e aebd 9612 123e 7e25 f4be
00000040: efc1 86bf 978f 883e 245c 39c0 f626 3c3f
00000050: 801c 4ec0 70e3 82be 3565 02bf 1c63 a33c
00000060: 0551 afbf f1fb 713e 1da2 37bf 5501 c8be
00000070: ddfa 2fbf d60b 09bf 364a 91bd cd43 b1be
00000080: c091 1d3f b8f9 17be 9b2c a83d 6a87 94be
00000090: 21df 263f a749 debd e590 ffbf 4fb3 90c0
000000a0: ee03 fbbf 9e22 953e 3332 133f b12f f6bf
000000b0: d863 46bd 455e 8bc0 ce7a b4bc b223 703d
000000c0: 0879 e9be ada6 b43f a7c1 c13d 534b 76be
000000d0: 27ed 913e 5eb8 82c0 50c9 ccbe 0dbd cabf
000000e0: bdf4 1bbc d695 bc3f 135e 93be ca81 9a3f
000000f0: 3ea4 47bf 10a1 b6bf aaf9 93bf 742f 40c0
00000100: ee3f a3bf b282 793d 36da d2be 7099 283f
00000110: 99a8 01bf ca3b b2be 2683 4bbf b83a 0ebf
00000120: 2919 97bf 91d7 b43e e66d c7be 5709 463e
00000130: e20a 013f 8468 4a3d 3b42 27c0 2905 6dbf
00000140: c289 3dbf 11c5 073f 0ca3 48bf f383 b5be
00000150: 127e 8ec0 be29 dfbe bd29 5d3e 6dd0 adbe
00000160: cf02 78bf d4f3 2fbf 1540 54be fcfe a8bf
00000170: cae6 40c0 fd4b 91bf 30ba 91be 932b 0b3f
00000180: cd95 a0bf 0f12 b6bf 4997 a7be 905d 7bc0
00000190: 2318 c2be cc52 08bf c400 b63e 05da d1bc
000001a0: 0297 c0bf 2bc3 20be 9db2 87bf e3bd 32c0
000001b0: 0a32 953d 9c7f 623e 8844 8abe 1ff3 98be
000001c0: 254b 9abc 9b61 18c0 14c6 f73e 4998 4cc0
000001d0: 5cfc bf3e 875a cdbd e447 26bf 08bb 73bf
000001e0: f175 24c0 9808 36be 9f5f 193e a810 f6bf
000001f0: 29ca c9be 9b85 e1be 251c cbbd c3ef 9ebe
00000200: 8259 a7bf cd89 9dbf a51e b0bf 6e19 c9bc
00000210: bf50 68c0 31ae 50be 0733 ca3e 2372 d6bc
00000220: a43a 31c0 bb81 073f 6d1a 3ac0 7a0b 81bf
00000230: 0854 273e 11cf 6e3e 7532 423e a0b6 95bf
00000240: 6922 2cbf e6e5 55bf 28fa 3ac0 77ed f9be
00000250: f79b bcbf e2bc 133c c675 233e feb7 bcbd
00000260: 463a 4cc0 86ce 0dc0 3a99 1b3e a0a6 f8bf
00000270: 6a2c f8bf 3c73 cdbf 7586 c43e 7e54 ea3e
00000280: 7d74 75bf 1e12 53c0 e3af ffbd 97ea 96be
00000290: 92da 40c0 c842 a03b 0fa7 01be c3a6 cc3d
000002a0: f543 bdbe 4d54 4dc0 9252 30bf b756 59bf
000002b0: 63de ed3e 1fe2 cf3e 2c6e 4abe e9de acbf
000002c0: e67e 81bf 842e d4bf 09ba bdbf 14e3 2ec0
000002d0: b50e 6cbf 57a5 0fc0 7a07 4d3f 3796 d43e
000002e0: e504 25c0 2523 903e 7639 4cc0 d40b 963c
000002f0: 69cf a9bf 7efc 213e 2fbb a3bd 0b5b 7ebe
00000300: 18e5 f9bd b405 9fbf 761d 15c0 f9cd 4fc0
00000310: bc55 803d 590d 943e 5640 abbe 9d44 61be
00000320: db55 01c0 5995 d5be ceb4 21c0 ed60 02c0
00000330: 1d40 0bbf acbf fd3e 4325 733e 0dfb c1be
00000340: 7160 3dc0 3316 77bc 4105 9f3e 2091 0dc0
00000350: 5e91 f0bf 20cc 62bf 61f3 a53d 705e 843d
00000360: ea83 edbe 347a 22c0 9bbf 14bf d3bc 2cc0
00000370: 6fe3 be3d f772 ecbc cc83 94be e3dc 4fbe
00000380: 0c8a e9be 1256 2f3e 9e17 29bc 18e8 3dc0
00000390: 19e2 cabf b957 8cbf e03c 483e df7f 86be
000003a0: d3c8 59be 1fbb 29bf f463 c03e eeda 4dc0
000003b0: 19f9 ccbf 804e 79c0 5b9d 5b3e 6d91 ce3d
000003c0: 38b6 efbf aeaa 903d b664 a43e 2980 edbf
000003d0: d5ca 3cc0 d958 64c0 a373 f73e c4b0 2b3e
000003e0: 7c00 e5bf 89f8 e2bd 5a1f c1bf 6473 f6bf
000003f0: 7936 01c0 4c92 65be 0b63 9a3e 8db8 1e3d

l3.bias f4 [80]
-0.19259724 -0.20771281 -0.28675586 -0.9450112 0.30775997 0.13948363 -0.35940337 0.2085751
-0.98560494 -0.5440987 0.3417257 0.0633 0.058909085 -0.0380856 -0.41929147 -0.33755553
-0.4234336 0.31894234 -0.6781185 -0.4574686 -0.4235149 -0.3749349 0.16866593 -0.29093036
-0.22993594 -0.22140612 0.22296585 -0.23060992 0.27988094 -0.1408251 -0.059008237 -0.24358465
-0.24954775 0.1545267 -0.1795045 -0.043201707 0.2993134 -0.48271924 -0.074437946 0.31477165
-0.09098941 -0.15422781 -0.7989301 0.5743562 0.17420448 -0.010102956 -1.2367896 -0.67754984
-0.24626143 0.15152238 -0.3736553 -0.6343931 -0.031135287 -0.50225 -0.35653228 0.48684776
-0.737387 -0.07750817 0.27009988 -0.24658765 0.57314163 -0.42847303 0.25543872 0.28720754
0.15094024 -0.12559432 -0.46430367 -0.4319248 -1.3597605 -0.21436337 0.09159398 0.3820955
-0.4898702 0.07427774 -0.7063906 -0.32854798 -0.53196007 0.3433964 -0.20155397 -0.046229202
00000000: 3638 45be abb2 54be aad1 92be 41ec 71bf
00000010: b792 9d3e ccd4 0e3e b803 b8be b694 553e
00000020: 9b50 7cbf 0d4a 0bbf acf6 ae3e 6ea3 813d
00000030: a74a 713d a5ff 1bbd 5fad d6be 14d4 acbe
00000040: 4acc d8be 694c a33e 2d99 2dbf 5339 eabe
00000050: f2d6 d8be 78f7 bfbe c3b6 2c3e d3f4 94be
00000060: 5474 6bbe 49b8 62be 2951 643e 0225 6cbe
00000070: 8e4c 8f3e 7434 10be 9fb2 71bd 416e 79be
00000080: 7289 7fbe 3f3c 1e3e 07d0 37be 46f4 30bd
00000090: 9b3f 993e fa26 f7be ec72 98bd c029 a13e
000000a0: a858 babd e5ed 1dbe af86 4cbf 0209 133f
000000b0: a962 323e de86 25bc 1f4f 9ebf e873 2dbf
000000c0: f52b 7cbe af28 1b3e bf4f bfbe 9667 22bf
000000d0: 6e0f ffbc 7593 00bf 668b b6be 1c44 f93e
000000e0: 65c5 3cbf 9abc 9ebd 884a 8a3e 7981 7cbe
000000f0: 69b9 123f d160 dbbe ddc8 823e de0c 933e
00000100: 1490 1a3e cc9b 00be 36b9 edbe 3f25 ddbe
00000110: a20c aebf 1282 5bbe a095 bb3d 05a2 c33e
00000120: 44d0 fabe ee1e 983d 04d6 34bf 7137 a8be
00000130: 892e 08bf a7d1 af3e 2a64 4ebe d55a 3dbd
